Trial 30 Complete [00h 01m 16s]
val_loss: 1.142720103263855

Best val_loss So Far: 1.0108680725097656
Total elapsed time: 00h 23m 57s
Best hyperparameters: {'filters': 32, 'kernel_size': 4, 'activation': 'relu', 'learning_rate': 0.001, 'l2': 0.001, 'units': 32, 'dropout': 0.15}
Model: "sequential"
_________________________________________________________________
 Layer (type)                Output Shape              Param #   
=================================================================
 conv2d (Conv2D)             (None, 45, 45, 32)        544       
                                                                 
 max_pooling2d (MaxPooling2  (None, 22, 22, 32)        0         
 D)                                                              
                                                                 
 conv2d_1 (Conv2D)           (None, 19, 19, 32)        16416     
                                                                 
 max_pooling2d_1 (MaxPoolin  (None, 9, 9, 32)          0         
 g2D)                                                            
                                                                 
 flatten (Flatten)           (None, 2592)              0         
                                                                 
 dense (Dense)               (None, 32)                82976     
                                                                 
 dropout (Dropout)           (None, 32)                0         
                                                                 
 dense_1 (Dense)             (None, 7)                 231       
                                                                 
=================================================================
Total params: 100167 (391.28 KB)
Trainable params: 100167 (391.28 KB)
Non-trainable params: 0 (0.00 Byte)
_________________________________________________________________
